…
, scale=0.5, seed=0, shear=0.0, show=False, show_boxes=True, show_conf=True, show_labels=True, simplify=True, single_cls=False, source=None, split=val, stream_buffer=False, task=detect, time=None, tracker=botsort.yaml, translate=0.1, val=True, verbose=True, vid_stride=1, visualize=False, warmup_bias_lr=0.1, warmup_epochs=3.0, warmup_momentum=0.8, weight_decay=0.0005, workers=8, workspace=None
Overriding model.yaml nc=80 with nc=14

                   from  n    params  module                                       arguments                     
  0                  -1  1      1856  ultralytics.nn.modules.conv.Conv             [3, 64, 3, 2]                 
  1                  -1  1     37120  ultralytics.nn.modules.conv.Conv             [64, 128, 3, 2, 1, 2]         
  2                  -1  2    173824  ultralytics.nn.modules.block.C3k2            [128, 256, 2, True, 0.25]     
  3                  -1  1    147968  ultralytics.nn.modules.conv.Conv             [256, 256, 3, 2, 1, 4]        
  4                  -1  2    691712  ultralytics.nn.modules.block.C3k2            [256, 512, 2, True, 0.25]     
  5                  -1  1   2360320  ultralytics.nn.modules.conv.Conv             [512, 512, 3, 2]              
  6                  -1  4   4272944  ultralytics.nn.modules.block.A2C2f           [512, 512, 4, True, 4, True, 1.2]
  7                  -1  1   2360320  ultralytics.nn.modules.conv.Conv             [512, 512, 3, 2]              
  8                  -1  4   4272944  ultralytics.nn.modules.block.A2C2f           [512, 512, 4, True, 1, True, 1.2]
  9                  -1  1         0  torch.nn.modules.upsampling.Upsample         [None, 2, 'nearest']          
 10             [-1, 6]  1         0  ultralytics.nn.modules.conv.Concat           [1]                           
 11                  -1  2   2102784  ultralytics.nn.modules.block.A2C2f           [1024, 512, 2, False, -1, True, 1.2]
 12                  -1  1         0  torch.nn.modules.upsampling.Upsample         [None, 2, 'nearest']          
 13             [-1, 4]  1         0  ultralytics.nn.modules.conv.Concat           [1]                           
 14                  -1  2    592640  ultralytics.nn.modules.block.A2C2f           [1024, 256, 2, False, -1, True, 1.2]
 15                  -1  1    590336  ultralytics.nn.modules.conv.Conv             [256, 256, 3, 2]              
 16            [-1, 11]  1         0  ultralytics.nn.modules.conv.Concat           [1]                           
 17                  -1  2   2037248  ultralytics.nn.modules.block.A2C2f           [768, 512, 2, False, -1, True, 1.2]
 18                  -1  1   2360320  ultralytics.nn.modules.conv.Conv             [512, 512, 3, 2]              
 19             [-1, 8]  1         0  ultralytics.nn.modules.conv.Concat           [1]                           
 20                  -1  2   2496512  ultralytics.nn.modules.block.C3k2            [1024, 512, 2, True]          
 21        [14, 17, 20]  1   1421818  ultralytics.nn.modules.head.Detect           [14, [256, 512, 512]]         
YOLOv12l summary: 488 layers, 25,920,666 parameters, 25,920,650 gradients, 81.9 GFLOPs

Freezing layer 'model.21.dfl.conv.weight'
AMP: running Automatic Mixed Precision (AMP) checks...
AMP: checks passed ✅
train: Fast image access ✅ (ping: 1.0±0.2 ms, read: 44.7±14.2 MB/s, size: 50.9 KB)
train: Scanning /home/ashres34/Desktop/SCI501/PPE_DATASET_YOLOv8_/ppe-dataset-yolov8/versions/1/train/la
…
